model.onnx (onnx, 13425 bytes, 5 tensors)

sequential/dense_1/MatMul_bias f4 [10]
00000000: 96a0 8bbb 3a88 733b 0000 0000 d57a 12bb
00000010: a06f ebba 2dba 9d3a a90f 01ba 88ec 1cba
00000020: 617a 0d3c c600 693b
-0.0042610867 0.0037160055 0.0 -0.0022351046 -0.0017962344 0.0012033634 -0.0004923293 -0.00059861736
0.008635134 0.003555344

sequential/dense/MatMul_bias f4 [100]
00000000: 125d c5ba 2184 b8ba 5896 483b 4b08 3f3a
00000010: 79d6 033a b72a a037 8766 bc3b c1ae 3b3a
00000020: d147 ccb8 c624 0ab9 1950 27b9 9e68 94b9
00000030: 320b 4c3b b4a3 8c3a acf2 d43a 6a56 1bba
00000040: 0000 0000 5886 2bba 293a 7eb8 7e30 013b
00000050: 1049 0d3a 5040 a8ba 0000 0000 cc0d f039
00000060: 8558 14ba 0826 eeba b8f5 b6ba 56b6 8fb9
00000070: 97f8 af39 ca3f 943a 557c 2bba f276 7dba
00000080: 645c e9b9 466b db3a 14c8 09bb c6d7 0dba
00000090: 63c0 62b9 73b0 ca38 b47e 0c3a 9158 57ba
000000a0: f786 2bbb 8234 1a38 aef4 dc39 7f55 30bb
000000b0: 3a77 1eb9 a7a9 243a 5061 afba 95ba 303b
000000c0: 61ac 1e3a 3181 3bb9 ddf4 2339 076f 9d3a
000000d0: 0000 0000 c904 a53a 0000 0000 2771 32ba
000000e0: a3a8 8cb8 3b07 cf3a 333f f439 cf83 45ba
000000f0: 51f1 593a ce11 a6b8 6e06 3d3a ad56 e339
00000100: 5fdf 223a 9af8 6439 a4cc 9bb8 0000 0000
00000110: e1bb 88ba d6ba 4e3a 2d7a 46bb 1097 a639
00000120: 19b2 673a 76f8 9a39 d624 fd3a a213 fd3a
00000130: 0589 a5b7 0bd8 7239 3967 d539 cbdf adba
00000140: 7f82 6139 07c5 4cb8 f605 c139 ec29 3cba
00000150: 5301 f2b8 1190 2f3a fe93 9eb9 4bb1 503a
00000160: 29ae 6db8 fb18 ff39 ab00 da39 7b64 983b
00000170: 2057 263a 0000 0000 ab14 f9b9 ba38 8bba
00000180: 76cf 7d3a fef1 acb9 12d3 9c39 5675 b4ba
-0.0015057644 -0.0014077463 0.003060719 0.00072873075 0.00050292123 1.9093377e-05 0.005749527 0.0007159524
-9.740855e-05 -0.00013174405 -0.000159562 -0.00028306706 0.0031134603 0.001072994 0.0016246638 -0.00059256575
0.0 -0.0006543151 -6.0612485e-05 0.0019712741 0.00053896103 -0.001283655 0.0 0.00045786647
-0.00056589424 -0.0018169293 -0.0013958728 -0.00027410936 0.00033563815 0.0011310515 -0.0006541659 -0.00096689083
-0.0004451006 0.0016740344 -0.0021023797 -0.0005410876 -0.00021624709 9.664977e-05 0.00053594564 -0.00082147965
-0.0026172975 3.6765363e-05 0.0004214397 -0.0026906428 -0.0001511247 0.00062813837 -0.0013380442 0.002696668
0.0006052908 -0.00017881837 0.0001563611 0.0012011238 0.0 0.0012589927 0.0 -0.0006807022
-6.707131e-05 0.0015795002 0.00046586394 -0.00075345946 0.0008313852 -7.918813e-05 0.0007210736 0.00043361392
0.00062130945 0.00021836386 -7.429093e-05 0.0 -0.0010431969 0.0007886117 -0.0030285225 0.00031774538
0.00088384893 0.00029558287 0.0019313346 0.0019308219 -1.9733337e-05 0.00023159401 0.00040703433 -0.0013265548
0.00021506286 -4.8820886e-05 0.0003681627 -0.00071778777 -0.00011539706 0.0006697188 -0.0003024637 0.0007960989
-5.6667403e-05 0.00048656002 0.00041580698 0.00465065 0.000634538 0.0 -0.0004750838 -0.0010621764
0.0009682098 -0.00032986695 0.00029911898 -0.0013767879

const_fold_opt__20 f4 [10, 1]
00000000: 019e d0be 415a c53e 3e79 ee3e e937 193f
00000010: 740e 3abe d4f6 a7be ff41 36bf ea39 a73e
00000020: 09a7 143f 5f9e fc3e
-0.40745547 0.3854542 0.46576875 0.5985094 -0.18169576 -0.32805502 -0.7119445 0.32661372
0.58067375 0.49339578

const_fold_opt__19 f4 [100, 10]
00000000: e092 30bd 3dfc 79be 77d2 62be d655 283e
00000010: fea8 ebbc cd46 bfbd d912 90bd 86ed 3c3e
00000020: 60f6 31be f772 903d c185 4b3e cb44 d9bd
00000030: 7048 5a3d f217 2a3e fa05 b33d f1cd 1d3e
00000040: ef23 52be ad85 fabd 8357 6a3e c16c 9e3d
00000050: 6176 3dbe b58b 603e 2008 113e ac33 42be
00000060: 662d bebc bda8 8dbd 1f36 14be 7c02 66be
00000070: 2cd0 6d3e b818 42bd bc51 51be 82d8 e03a
00000080: f152 f2bd c2be 19be 90b5 b7bd e8b5 d13d
00000090: 2186 33bb d883 11be 31f0 0cbd 8120 ce3d
000000a0: 2e6f 2cbe 85e6 1d3e 5084 393e fbc6 623d
000000b0: 5010 f83d d7ac 64be 8914 4c3e a83e dbbd
000000c0: 8429 6cbc 70f5 3b3e 0b28 803d cb37 83bd
000000d0: 1048 093c d442 a93d c57c 1cbe 3658 0fbe
000000e0: 4d48 7dbd ecfb 493e b0f2 173e 401f fabd
000000f0: efee 6fbe 28cd 633e 718b 5abe d5c9 0c3e
00000100: 4b52 45be 8047 cfbd 8031 4cbe 9e56 493e
00000110: 73a4 433e b25e 113e f78b abbd 3b29 603e
00000120: 8825 c93d f92a 063e 8dbc 923d cae2 1b3e
00000130: 89f0 e6bd 290e 40be 4482 cbbc e759 c53d
00000140: ea66 3cbe 072c 0bbe 48ed c63d 7a10 0abe
00000150: d363 9fbc b860 53be 32e8 20be 1004 9b3d
00000160: 854b 493e d209 2abe ff2c 283e c78f 5cbc
00000170: 6eb4 553e d6b2 563e 9a56 af3d d9c9 5c3d
00000180: a394 c5bd c0e0 703d 5d34 363d 2ebe 6a3e
00000190: 74d5 173e 929f 673e 48d5 073d 2939 98bd
000001a0: 08b9 22be 2c01 bcbc c3e2 5e3e 4288 54be
000001b0: a99c a0bd e8fe cfbd 9878 0bbe 7244 54be
000001c0: 905f a5bc d59a c8bd f699 17be 0072 d8bd
000001d0: 5d96 de3d aafa 14be 05de b6bd 62e3 393e
000001e0: 4b7c 8c3d 72f1 8b3d e005 653e 3158 b6bd
000001f0: 7376 1bbe e147 3abe e449 30be c20e 80bd
00000200: 5363 703e 44c6 47bd 0dac 0cbe 0527 3bbe
00000210: 5011 493d a3db 6f3e 4627 77bd c79a 003e
00000220: 9546 2a3e 9049 de3c b065 f33d 3379 733d
00000230: 8e0e 4fbe 8ad1 6e3e 9c09 633e f381 063e
00000240: c0bb 933d 8e47 103d d50d 633a 989a cabc
00000250: 8d31 38be 878a 963d 595b fd3b ec4a 333e
00000260: ee95 143e 8efc 243e b8c2 3cbe befc d43d
00000270: a405 5dbd 5bc2 313e 57eb 4ebe e25e d73d
00000280: 5e49 1bbe 2e66 a1bd 94d0 d03d 26e9 453e
00000290: 1080 c7bc 20c8 883c ded9 323e 88e2 603d
000002a0: 2c4f 40bd a473 233e 6b4b edbd 5c9a 1ebe
000002b0: 2c7a a9bd 2f4a cd3b 511b 9d3d ba88 d8bd
000002c0: f317 a4bc 6556 06be 34b0 2fbe aaa0 f63d
000002d0: 84d7 37bd 70b6 1fbe 483e a1bc c8bb 163e
000002e0: c05c 0e3e 133c b03d 077e 59be 92b8 ecbd
000002f0: 3fb7 2d3e c6f4 9e3c 0ece 1bbe 765f 383e
00000300: b2d5 b7bd cdac 30be fa7f b03d 768f fb3d
00000310: e2b1 5cbe 7b07 d2bd 6074 75bd 74a4 903d
00000320: f91b 413e 34b9 7e3e 3072 03be 7b9c 5dbe
00000330: 95c5 4b3e 0398 48bd 9bc3 4bbd adde 6bbd
00000340: 2991 473d 81a8 113c 8cf2 473e 25ae 0abe
00000350: 4cf7 a73d d51c b6bc bc3a f9bd 80a5 6abc
00000360: 1401 3c3d b974 313d b040 37be a4cc 273e
00000370: 919f 39be a4d2 65be 0cc2 ba3d 9a22 6abe
00000380: 469b bebd e0e4 65bc c6e5 20be 7827 013e
00000390: d8d5 1b3d 9490 843d d598 903d f6d3 1bbe
000003a0: dee1 60be 7619 4bbd d748 d63b f6b3 3fbe
000003b0: 970f 6a3e de40 02be db16 17be 1757 983d
000003c0: de60 463e f267 6c3e 3eaf 42be 1fd7 4c3e
000003d0: 5b6a 17be c5fe 92bd 9d5d 4e3e 1654 4cbe
000003e0: 1b9a 65bd b981 443e 4b09 b1bd 3a37 473e
000003f0: 8806 5a3d 4b4c 643e 0003 0e3e e1c7 563e
-0.04310882 -0.24412628 -0.22150598 0.16438994 -0.028767105 -0.09339676 -0.07034845 0.18449983
-0.17379141 0.07053178 0.19875242 -0.10608824 0.053291738 0.16610697 0.08741374 0.15410592
-0.2052152 -0.12232528 0.22884946 0.07735587 -0.18502189 0.21928294 0.14163256 -0.18965024
-0.023215007 -0.0691695 -0.1447377 -0.22461885 0.23223943 -0.047386855 -0.20441335 0.0017154368
-0.11832226 -0.15014175 -0.08970177 0.10239774 -0.002739318 -0.1421045 -0.034408752 0.100647934
-0.16839287 0.15419967 0.1811688 0.055365544 0.12112486 -0.22331558 0.19929709 -0.1070531
-0.014414195 0.18355346 0.062576376 -0.06407126 0.008378997 0.082646996 -0.15281971 -0.13998494
-0.06183653 0.19725007 0.14838672 -0.12212992 -0.2343099 0.2224623 -0.21342255 0.13748868
-0.19269674 -0.101210594 -0.19940758 0.19661948 0.19105701 0.1419628 -0.083763056 0.21890728
0.09821612 0.1310233 0.071648695 0.15223232 -0.11276347 -0.18755402 -0.024842389 0.09636288
-0.18398634 -0.13591014 0.097132266 -0.13482848 -0.01945678 -0.20642364 -0.15713575 0.07569134
0.19657715 -0.16605309 0.16423415 -0.013462014 0.2086961 0.20966658 0.0856144 0.053903434
-0.09647491 0.05880809 0.04448353 0.2292411 0.1482752 0.22619465 0.033162385 -0.074327774
-0.15890896 -0.022949778 0.2176619 -0.20755103 -0.078423806 -0.101560414 -0.13620222 -0.20729235
-0.02018717 -0.09795157 -0.14804825 -0.10568619 0.10868523 -0.14548746 -0.089290656 0.18153146
0.068596445 0.068331614 0.22365522 -0.0890354 -0.15181904 -0.18191482 -0.17215687 -0.06252815
0.23475389 -0.048773065 -0.13737507 -0.18276604 0.049088776 0.23423629 -0.06034019 0.12559043
0.16628487 0.027134687 0.1188463 0.059441756 -0.20220396 0.2332212 0.22171634 0.13135509
0.07213545 0.03522449 0.0008661424 -0.02473192 -0.17987652 0.07350641 0.0077318368 0.17509049
0.14510319 0.16111967 -0.18433654 0.10399769 -0.053960457 0.17359297 -0.20206963 0.10516144
-0.15164706 -0.07880817 0.10196033 0.1932722 -0.024353057 0.01669699 0.17465922 0.054903537
-0.046950504 0.15962082 -0.115866505 -0.15488571 -0.082752556 0.006264947 0.07671226 -0.105729535
-0.020030951 -0.13118894 -0.1715706 0.12042363 -0.044883266 -0.15596938 -0.019683018 0.1472007
0.13902569 0.08605208 -0.21239482 -0.115586415 0.16964434 0.019403826 -0.15215322 0.18005165
-0.08976306 -0.17253418 0.086181596 0.122832224 -0.21552232 -0.10255333 -0.059925437 0.07062617
0.18858327 0.24875337 -0.12836528 -0.21641724 0.1989959 -0.048973095 -0.04974709 -0.057585407
0.04872242 0.008890272 0.19526118 -0.13542993 0.08201465 -0.022230545 -0.12169406 -0.014321685
0.045899466 0.043324206 -0.1789577 0.16386658 -0.18127276 -0.22443634 0.09119043 -0.22864762
-0.0930696 -0.014031619 -0.15712652 0.12612712 0.038045734 0.064728886 0.070604004 -0.15217575
-0.21961161 -0.04958483 0.006539445 -0.18720993 0.2285751 -0.12720057 -0.14754812 0.07438486
0.1937289 0.23086527 -0.19012162 0.20003937 -0.14786665 -0.071775 0.20152898 -0.19953951
-0.05605517 0.1919011 -0.086443506 0.19454661 0.053228885 0.22294728 0.13868332 0.20974685

const_fold_opt__18 f4 [20, 100]
00000000: a156 4abe 4fdb 35bd 5235 27bd 4581 4abe
00000010: 955a 723d 50af 5c3e b0d9 27be 99f0 3a3d
00000020: 7da3 aebd 4646 343e f5f4 8e3c 7a16 673d
00000030: d564 22be f75a 303e 2ebc 8fbc 212b 693d
00000040: bc23 bb3d f72a 1fbc fe65 0cbe aa51 06bd
00000050: ab23 08be ab81 eabb 28a2 653d 9d97 ab3d
00000060: eb61 d1bd ec7a 19bd f787 6d3d 178a 613e
00000070: eb74 ce3c 764a 5fbe b0a6 c1bd 405b d9bb
00000080: 1508 3f3e 0cda 57bd 1b12 23be 07af ea3d
00000090: e565 603e 8962 2bbe f401 8fbb e456 003e
000000a0: c8f3 4e3d 3bdb 59bd 7ea2 5cbe 228b c3bd
000000b0: 61ab 353e 55d0 1d3d 6f86 083d 83de 12be
000000c0: 5fa2 00be 26ee 133d a020 4f3e 200f c5bd
000000d0: 040d 94bd 10a7 28bd 90dd 5bbe 32db 50be
000000e0: da2d e33d ab98 413e e1b1 63be b9cf 9cbd
000000f0: 1957 21be f877 38be df2f b6bd 8b6d 1f3e
00000100: 0894 403e eeea 623e 6989 573e 4ed6 e8bd
00000110: 417c b13c 0969 183d 3ae0 443d d3de 90bd
00000120: eca4 26bd d1ce 663c f04d 5a3e 2d02 28be
00000130: 691a 093e 5794 86ba 8702 d93c c33b 33bd
00000140: c6af 0d3d 6038 57bd 6d60 863d 68f3 0cbe
00000150: fd80 ecbd 1051 993d abf0 46bd b13c e73d
00000160: 665c ed3d 54ac 093e 9ff1 29bd de4a 633e
00000170: 7bb4 1b3e 65b3 5abe 0517 ca3d de35 33be
00000180: cc71 343e a421 f3bd 6807 c4bd 9464 003e
00000190: 8a5e 4e3e 17f6 4b3e e3d2 8abd 7337 5fbe
000001a0: 03d5 603c edd4 f73d 7520 85be 42d6 3abd
000001b0: 34de 443e 5999 14be dcb1 f4bd afd1 d4bb
000001c0: cf5c 693d d435 2cbe 9f80 5bbe 58de cb3d
000001d0: 549b 2ebd 2129 0bbd 8b08 463e 4214 a53d
000001e0: 36c2 0fbe 4598 8cbd d688 29be 450f 0e3e
000001f0: 2740 9dbd 872c a7bd ef18 5abe c6f0 0d3e
00000200: 66ea 2ebd 5efd 40be 37d2 8ebd 272e 7dbc
00000210: 8b4e 4fbe d4f2 9bbc 6000 19be 6cae 703d
00000220: 6cb9 b23d 427d b3bd 7077 d03c 54dd fd3d
00000230: 9a99 dabd 9d0a 023e 624b 4ebe 0896 c93d
00000240: 8e58 063c 1ec0 403d 7ca0 c13b 4739 1ebe
00000250: b3dd 493e 4a04 543d 6b4c 6fbd cb78 783d
00000260: 13b1 e8bd bab8 46be 1416 4dbe 0345 813d
00000270: 9ed2 3d3d ce96 363e 525f 59bd 3464 163e
00000280: 4649 65be 1557 223e 5cfa 453e 1f77 8dbb
00000290: 50a6 fd3c d8f1 39be ed6d 003d dc47 4b3e
000002a0: ad5e 7c3d ed98 5bbd 6909 28be 39ad 43be
000002b0: 5709 f93d 7d1a 223e 4585 f6bd 941a 17be
000002c0: 74b3 ea3d 81de f83c fc7b 733d 7b7c 573e
000002d0: e76c 5dbe 0a83 48bd 05f8 2a3e 447d b93d
000002e0: 6d8f e5bd 6d5e 5b3e 5867 903d a6af 743e
000002f0: dc28 a33d d126 04bd 6f75 603d 7339 56be
00000300: a880 6c3d 286d 2abd 05f5 a4bd 0ca6 2ebe
00000310: 5840 acbd e081 a33d dea9 503e 2889 313e
00000320: 070f 0cbe d3bf 953a d9a4 e7bd 1134 1e3d
00000330: 0d6f 2dbc 1ff4 afbc 06b8 db3d be25 1bbe
00000340: ecf9 01be ad82 843d 81bc 1c3e 0b2f 953a
00000350: 00b4 31be 8402 3cbe 6b4f 473e 6622 b13d
00000360: 684c b03d b14b 223e bb1f d13d 0b68 103e
00000370: 26b5 a8bd ed26 1bbe c648 a1bd 5549 bc3d
00000380: d5ab 2b3e 8149 fabd 45f3 27be 057a 4dbd
00000390: 1341 1ebc ac3c 17bd 681d 473e 8b3e f93d
000003a0: bfb0 453e e172 c5bd 0ec9 c7bd ed38 3abe
000003b0: 5010 54bd e4fe fc3c 222d 503e ac5a 32be
000003c0: 188a 4a3e 93e4 303e 8750 403c 3b2f f3bd
000003d0: 6030 d23d 6cd4 5ebc ded8 9bbd 5cae 173e
000003e0: 9ac7 a83d b4bf ffbd 6b7d 45be 114c 3abe
000003f0: 022e 29be 7a8e 6b3c 3458 23be 38f7 63be
-0.19759609 -0.044398602 -0.040822335 -0.19775875 0.059168417 0.21551251 -0.16391635 0.045639608
-0.08527277 0.17604932 0.017450789 0.05641792 -0.15858777 0.172222 -0.017545786 0.056925897
0.09137675 -0.009714833 -0.13710782 -0.032792725 -0.13294856 -0.007156571 0.056062847 0.08378527
-0.102237545 -0.037470743 0.057990994 0.22025333 0.025202235 -0.21805748 -0.09455621 -0.0066331923
0.18655427 -0.05269818 -0.15924875 0.11459165 0.2191387 -0.16736807 -0.0043642465 0.12533146
0.050525457 -0.05318759 -0.21546361 -0.09548022 0.17741157 0.03852876 0.03333133 -0.14342694
-0.1256194 0.036115788 0.20227289 -0.096220255 -0.07229045 -0.04117495 -0.21471238 -0.20396116
0.1109273 0.18905894 -0.22235824 -0.076568075 -0.15755881 -0.18014514 -0.088958494 0.15569131
0.1880647 0.22159931 0.21048512 -0.113690004 0.021665694 0.037209544 0.0480654 -0.0707375
-0.040684626 0.014087395 0.21318793 -0.1640708 0.13388981 -0.0010267597 0.026490463 -0.043758165
0.03459146 -0.052543998 0.065613605 -0.13764727 -0.1154804 0.074861646 -0.048569363 0.11290873
0.11589889 0.13444644 -0.041490193 0.22196528 0.15205567 -0.21357496 0.09867672 -0.17501017
0.17621535 -0.11871651 -0.09571725 0.12538368 0.20153251 0.19918095 -0.06778505 -0.21798496
0.013722661 0.12101159 -0.26001325 -0.04561449 0.19225389 -0.14511622 -0.119479865 -0.006494723
0.056973275 -0.16817409 -0.21435784 0.09954518 -0.0426286 -0.03397477 0.19339196 0.080605045
-0.1403893 -0.068649806 -0.16556105 0.13873012 -0.07678252 -0.0816279 -0.21298574 0.13861379
-0.04270401 -0.18846652 -0.06973689 -0.015452898 -0.20244806 -0.019036688 -0.1494155 0.05876009
0.08726773 -0.087641254 0.025447577 0.123957306 -0.106738284 0.12699361 -0.20145944 0.09843069
0.008199824 0.047058217 0.005909024 -0.15451537 0.19713478 0.051761903 -0.058422487 0.060662072
-0.11361899 -0.19406405 -0.20027953 0.06311991 0.04634344 0.17830965 -0.05306942 0.14686662
-0.22391233 0.15853532 0.19333786 -0.004317179 0.030963093 -0.18158662 0.031354833 0.19851631
0.061613727 -0.05361264 -0.1640984 -0.19109048 0.121599846 0.15830417 -0.12037138 -0.14756233
0.11460009 0.030379536 0.059444413 0.2104358 -0.21623574 -0.048953094 0.16696174 0.09057096
-0.11208997 0.2142274 0.07050961 0.2389513 0.07966778 -0.03226358 0.054799493 -0.20920353
0.057739884 -0.041608006 -0.08054546 -0.1705553 -0.0841071 0.07983756 0.20377299 0.17337477
-0.13677607 0.0011424966 -0.11310739 0.038623873 -0.010585559 -0.02147871 0.10728459 -0.15151116
-0.12692994 0.06470237 0.15306284 0.0011381818 -0.17353821 -0.18360335 0.1946389 0.08649139
0.08608323 0.15849186 0.1021113 0.14102189 -0.08237676 -0.15151568 -0.078752086 0.091936745
0.16764767 -0.12221051 -0.16401394 -0.050165195 -0.00965907 -0.036923096 0.19444811 0.12170132
0.19305705 -0.09641052 -0.09755145 -0.18185778 -0.05177337 0.03088326 0.20329717 -0.17417401
0.19779241 0.17274694 0.011737949 -0.11874243 0.10263133 -0.01360045 -0.076097235 0.14812607
0.08241196 -0.12487736 -0.19286124 -0.1819308 -0.16521457 0.014377231 -0.15951616 -0.22262275
